model.tflite (tflite, 12128 bytes, 9 tensors)

sequential_1/dense_9/MatMul;sequential_1/dense_9/BiasAdd f4 [23]
00000000: 27fb 1340 7f22 86bf 0317 12c0 9c05 dfbf
00000010: 32fc 8abf a7b7 5e40 c13d 96bf a727 14c0
00000020: 89ac 08c0 e7a7 49c1 a645 0840 984d 6cbf
00000030: b3a7 2fc0 3869 10c0 3897 e3bf d9c6 1f40
00000040: 0a44 0ec0 63a4 8640 4349 f8bf 808f 80c0
00000050: 1ebf 1cc1 9a70 1540 6987 debf
2.3122041 -1.0479277 -2.2826545 -1.7423587 -1.0858214 3.4799592 -1.1737596 -2.3149202
-2.1355307 -12.603492 2.129251 -0.923059 -2.7446105 -2.256422 -1.7780523 2.4965117
-2.2229028 4.2075667 -1.9397358 -4.017517 -9.796659 2.3349977 -1.7385074

sequential_1/dense_7/BiasAdd/ReadVariableOp f4 [10]
00000000: 251f 9b3e 4b44 ad3f a3ad 3abd 3c0e fd3e
00000010: 0fab b23f 573c 9b3e 2bc2 913e 1d61 083f
00000020: ef1b e83f 0ae4 aa3e
0.302972 1.3536466 -0.04557575 0.49424922 1.3958453 0.30319473 0.2846845 0.53273183
1.8133525 0.33377105

sequential_1/dense_6/BiasAdd/ReadVariableOp f4 [50]
00000000: 1e30 163d 1d0d c0b9 a270 3a3c 26e6 183d
00000010: 37ec 073d e4bc 103d 56d4 243d dd88 11ba
00000020: 0fe3 1a3d ab77 903f 8383 74be acf5 143d
00000030: 3e16 183d 5a30 613f 13ff ff3c 41e3 0b3d
00000040: a5c8 9e3f 8a4a 103d c1b7 1e3d 4c47 bd3d
00000050: d24f 473f aa15 91bb 7526 8b3f c97e 0f3d
00000060: e225 283c dcf0 513d 6531 c53c 438e 0eba
00000070: 74cd 66ba 3517 7c3d 1176 0c3d d735 6eb9
00000080: 681f 243d 7313 403d 549c 9c3d 36f2 243f
00000090: a7c5 71ba ae40 0e3d e60c 123d 9efa bf3f
000000a0: 433b 963d c039 033d 969b 8f3f 73ee 873d
000000b0: bcf0 0d3d a7a0 7a3d 0835 853c 45c1 16bf
000000c0: dd58 0c3d fd36 0a3d
0.036666982 -0.00036630864 0.011379393 0.03732886 0.033184256 0.03533639 0.04024156 -0.0005551705
0.037814196 1.128652 -0.23878293 0.036367103 0.037130587 0.87964404 0.031249559 0.034152273
1.2404982 0.035227336 0.03874946 0.092421144 0.7785617 -0.0044276314 1.0871111 0.03503302
0.010262938 0.051255092 0.024071405 -0.0005438069 -0.00088044186 0.06154557 0.034292284 -0.00022717506
0.040069014 0.04689355 0.07647005 0.64432085 -0.0009222873 0.034729652 0.035656832 1.4998357
0.07335522 0.032037497 1.1219356 0.066372775 0.03465341 0.061188366 0.016260639 -0.58888656
0.034264434 0.033743847

sequential_1/dense_5/BiasAdd/ReadVariableOp f4 [10]
00000000: 39c2 03bf 9a68 12be eebb 7abd 1bd9 553e
00000010: 61d9 e2be 2113 7f3e d26d 12bf 4f00 f8bd
00000020: 7d21 03bf 7aee 1ebf
-0.51468235 -0.14297715 -0.06121438 0.208836 -0.44306472 0.24909641 -0.5719882 -0.12109434
-0.51222974 -0.62082636

sequential_1/dense_5/MatMul f4 [10, 120]
00000000: 0be3 a73d 8257 2b3c 6987 0ebe fc7c 393e
00000010: 170d 2e3c fe9d 10be 3965 92bc f7b1 32be
00000020: f615 613b b4e6 353d 9da3 0ebe 3d63 63bd
00000030: 6931 e83c 66a3 043d 2bb1 c33c d452 5b3e
00000040: 3f27 0a3f 434f 603e 7242 82bf 8075 0a3e
00000050: 9d34 bebe 5daf 7e3e 10d6 da3d a04a 0bbe
00000060: 5cc2 9b3e 4256 e63d 4683 753d c518 38bf
00000070: e76a d9bc a667 ce3f 9c4c f03e 8cd7 06bf
00000080: ee42 07be 70fc 83be b75c f2be 1cdb 1fbe
00000090: 361c 05bd f489 e1bc 83ae 643e 6ca7 e13d
000000a0: 136c 6d3e 32f5 2e3e 4649 b03e a540 b3bc
000000b0: 3af2 383d a652 2c3e 7658 a2bc 18e6 4ebe
000000c0: cd5d 353e 06d1 d03c 4f55 4bbe 09fd 733e
000000d0: 3ed9 903d 081a 7c3b 6019 8a3d a94f 1c3d
000000e0: 93f9 263e 8e23 0e3e 34ef 463f dd66 003e
000000f0: 283b 09be 61c2 cd3d 65ac 463e e7e8 123d
00000100: c16a 773e 824c 083e d72d 273d 96d8 ec3d
00000110: 9912 c23d 67cb 573e a2c0 313e e40b 153e
00000120: eaec 0f3e a4f2 b43e 322a 163e 6b58 c63c
00000130: d44a 76be dae5 60bc 3d6f 583d 3006 8e3e
00000140: 516d 113f ceae e53e ff7e 903d 1fc9 503e
00000150: e812 b83d 6052 e13e 7780 603f 855d d73e
00000160: a37b 4d3e 3daf e03d f193 2f3e ad0f 2f3e
00000170: d2b0 1b3e 0367 d0bd 8c19 f83c 8df1 393d
00000180: 91a8 b9bd c0ce 7f3d 1972 f63d 2696 703e
00000190: 279c 7a3e 2aa8 503e a597 093d d4a7 7abd
000001a0: 7134 72bd c482 01bd 8d0f 8abc 1b41 d73e
000001b0: c292 f1bc 01d0 9f3d d968 94bd f58f 06bf
000001c0: f108 68be 8e4a 9cbd ab71 fcbe 1d85 9fbe
000001d0: bd0a 1fbf 5ede 0ebf 18df 14bf c2f2 36bd
000001e0: 439e 863d 72ba 363a 60a9 8bbd 757b 84bf
000001f0: 3157 c93d 58fd 76bf e304 963d a0c4 72bf
00000200: 1345 503c c359 913e f788 5e3f 8da1 de3d
00000210: 051f 52bd 12a9 38be f4ca e2bd 430e b83d
00000220: 0a88 c8be a77e dabe 89cf abbe 9f13 0cbf
00000230: 2960 9b3d 9051 80bc 9607 723e a5c1 52be
00000240: 6b38 c13e 8d22 b43e b831 053f e200 b0be
00000250: 6dec f4be 0c5f 7fbe 3dd7 87be 05e0 05bf
00000260: 94cd 4bbb 6ada 833e 69bc cbbd 3096 3cbe
00000270: ac81 d1bd b3be 1e3f daeb afbd 1abe b13e
00000280: 1f7d 323c 112d 17bc c7c9 fbbc 0924 87bd
00000290: 8bb8 bcbd 57ad 143d d298 0cbf 8a10 603f
000002a0: 1b16 973c a625 3b3f d265 2cbe 0621 0fbc
000002b0: 2445 473d 21ff a73e fd1a fabd 9154 fb3e
000002c0: fb29 f5bc c331 4b3d 65c9 a43e 8203 a73d
000002d0: 12b8 0dbf 77bb ab3c 0c5d 36bc 0f0a 82bc
000002e0: f50a 94bc 6c09 09be 1136 67be cd4f bdbd
000002f0: 639c 21be 6837 7f3c ddae 83bd 4749 fb3c
00000300: 3200 8fbb bc9d b0bc db4a 5ebd 600f 0340
00000310: 8988 063f e713 97bd ce8d 0dbc 4952 d43e
00000320: fa55 1fbd 58e3 1cbf 9113 4c3e ffdc 263b
00000330: 9a26 e2bd d3af e13e be2e 823f 740c 90bd
00000340: 9d8c 1a3f db0c a0bc 0653 113e ef46 943b
00000350: 0fba 21bf 18e6 a23e 7c62 f9be fb12 d8be
00000360: c735 463f 0530 b23f f7ed b8bd 3cb8 c73d
00000370: c062 353d d004 22be 8b83 853e 0448 9f3e
00000380: fb40 b23d 3115 60be 6c66 27bf 4d2e 94bd
00000390: 8f95 ff3d c1f5 02bf 0169 cc3e 5998 713e
000003a0: 14dd 46bd 0ad4 babd 0d7e d3be e590 203e
000003b0: f376 dbbe 2f6a 01be 9e79 f7bd ecdf 0c3d
000003c0: b927 003e 1046 8bbe 6901 a4ba 9089 9cbe
000003d0: ee7a 17bd 9b09 bdbf 991c 05bd 0556 ffbd
000003e0: 79b0 15be 6d5f 22be 9fbf f33d 6840 8abd
000003f0: 7f93 0f3c 3825 163e 639e 97be 1bb3 703e
0.08197602 0.010457875 -0.13918842 0.18114084 0.010623238 -0.14122769 -0.017870532 -0.174507
0.0034345365 0.04440947 -0.13929601 -0.055514563 0.028343873 0.03238239 0.023888191 0.21418315
0.53966135 0.21905236 -1.0176528 0.13521385 -0.37149516 0.24871583 0.106853604 -0.13602686
0.30421722 0.11246921 0.059939645 -0.71912795 -0.026540233 1.6125381 0.46933448 -0.5267265
-0.13209125 -0.25778532 -0.4733636 -0.15610927 -0.032497607 -0.027531601 0.22332196 0.11018261
0.23185758 0.17085722 0.34430903 -0.02188141 0.04515288 0.16828403 -0.019817572 -0.20204961
0.17711563 0.025490295 -0.19856761 0.23826994 0.07072686 0.0038467664 0.06743121 0.038161907
0.16306143 0.1388075 0.77708745 0.12539239 -0.13401473 0.100468405 0.19401701 0.035866644
0.24161817 0.13310435 0.0408152 0.11564748 0.094762035 0.21073686 0.1735864 0.14555317
0.1405522 0.3534137 0.14664534 0.024212083 -0.24051982 -0.013726676 0.05284046 0.27739096
0.5680743 0.44859928 0.070554726 0.20389222 0.08987981 0.4400816 0.8769602 0.42063537
0.20066695 0.10970924 0.17146279 0.17095824 0.1520417 -0.10175898 0.03028562 0.045396376
-0.090653546 0.06245303 0.12033481 0.23494777 0.2447363 0.2037665 0.033591885 -0.06119521
-0.059132043 -0.03161885 -0.016853118 0.4204186 -0.029488925 0.078033455 -0.072465606 -0.5256341
-0.22659661 -0.07631408 -0.49305472 -0.31156245 -0.6212576 -0.55808055 -0.58152914 -0.044665106
0.06573155 0.00069705315 -0.06819415 -1.0350176 0.098310836 -0.9648032 0.07325151 -0.94831276
0.012711781 0.28388795 0.8692774 0.10870657 -0.051299114 -0.18033245 -0.110738665 0.08987095
-0.3916629 -0.42674753 -0.33556774 -0.5471744 0.075867005 -0.015663892 0.23635706 -0.20581682
0.37738356 0.3518261 0.5202899 -0.34375674 -0.4783663 -0.24938601 -0.265314 -0.5229495
-0.0031097876 0.25752574 -0.09948046 -0.18416667 -0.10229811 0.62009734 -0.08589907 0.34715348
0.010894089 -0.009227053 -0.030735863 -0.0659867 -0.09214886 0.036298122 -0.54920685 0.87525237
0.018443158 0.7310432 -0.16835716 -0.008735901 0.048649922 0.32811835 -0.12212179 0.49087957
-0.029927244 0.049608003 0.32184902 0.08154966 -0.55358994 0.020963414 -0.011130583 -0.015873937
-0.018071631 -0.133825 -0.22579218 -0.092437364 -0.15782313 0.015577175 -0.06429837 0.03067459
-0.004364037 -0.021559589 -0.054270606 2.0478134 0.52552086 -0.07376843 -0.008639766 0.4146903
-0.038900353 -0.612844 0.19929339 0.0025461314 -0.11042519 0.44079456 1.0170515 -0.07033625
0.6037081 -0.01953738 0.14191827 0.0045250575 -0.6317453 0.31816173 -0.4870795 -0.4220198
0.7742581 1.3920904 -0.09029763 0.09751937 0.04428363 -0.15822148 0.26076922 0.3110963
0.087038 -0.21883084 -0.6539066 -0.07235394 0.12479698 -0.5115624 0.39923862 0.23593272
-0.04855068 -0.091224745 -0.41307107 0.15680273 -0.4286419 -0.12638162 -0.120837435 0.034393236
0.12515153 -0.2720189 -0.0012512627 -0.30573702 -0.03698247 -1.4768556 -0.032497976 -0.12467579
-0.146181 -0.15856715 0.11901783 -0.06750566 0.008763193 0.14662635 -0.29613027 0.23505823

sequential_1/dense_6/MatMul f4 [50, 10]
00000000: 03c7 873f d8dc 2c3e d5ca f33e 30a2 043f
00000010: b7f5 873f cba0 3b3e 1935 903f ac63 293f
00000020: d370 8a3f 7292 933f c194 8c3f 4193 aebe
00000030: 6714 fa3e 4943 d63e cffe 833f aff6 4b3e
00000040: 2c99 8d3f ac52 183f af2e 873f 6f6c 9d3f
00000050: 5fe8 883f adcf 9e3e 66f2 013f 5278 e03e
00000060: 2ad2 8e3f 8103 80bd 550d a33f 9c88 293f
00000070: 0fb4 893f 9c07 9e3f 9f35 743f 7300 533e
00000080: 14a7 0e3f bebe c93e dbdf 8d3f e7c8 4d3e
00000090: 2016 973f f3d9 323f ed09 833f d58b a73f
000000a0: c792 7c3f aead 633e 63d4 cc3e 2ea0 f33e
000000b0: aa60 873f 83c6 4e3e 1de4 923f ac8f 0a3f
000000c0: 84c1 903f 11bf 963f e704 893f b379 463e
000000d0: c82f d43e 5b7a db3e ed7e 703f fed0 873e
000000e0: afb5 913f 437b 203f 73c2 713f 3ab7 973f
000000f0: 35e5 883f d43d 823e a6aa e03e 1031 2a3e
00000100: 50ee 9f3f 4f32 643e e47c 973f eda0 413f
00000110: d7df 7f3f 4b13 953f 3155 8a3f c18c 78be
00000120: 82af fe3e 3055 dc3e 77e6 8a3f 303c 203e
00000130: 2bd7 913f 8383 353f 8518 913f 37f9 a23f
00000140: d9b8 8d3f b752 173e 7b75 e93e ef2a 093f
00000150: 8f15 833f d87f 3d3e 4051 9b3f f33d 263f
00000160: e01d 853f a04e a13f c0d6 ecbe 8cb9 cbbe
00000170: 40e5 90be a03a b93d 2eaa a8be 0386 4ebe
00000180: 405e b5be f4c3 54bf 2f1f acbc 0115 80be
00000190: f85a 923f f793 383e 60e6 e03e a759 45bd
000001a0: 4a73 6a3f fca1 6b3e c859 a23f 46a9 503f
000001b0: 012a 983f 1830 a33f 446e 8a3f 188f 3a3e
000001c0: 9a2d f93e fe01 f73e 723f 833f b3dc 923e
000001d0: 41f4 903f fc2a 083f c402 783f 216d 903f
000001e0: 4169 833f d8b2 183e d913 003f ce45 ab3e
000001f0: 5c82 873f 43ed 693e eb96 893f b418 143f
00000200: 3d8f 8b3f 1f22 a23f c40b d8be 9ca4 9cbf
00000210: 85c4 8ebb 7f2f b53e df37 e1be 74d1 1dbe
00000220: a2e6 9bbe 4276 f2be 6906 79be 0ea1 0abf
00000230: d065 893f 5479 933e 1ff9 fd3e 8f31 f33e
00000240: cc01 873f 4594 75bd 0606 9b3f 5924 433f
00000250: 9859 863f f98e a03f 1b47 8e3f 2d82 5c3e
00000260: 53f4 bd3e 0864 443e f3a7 833f dd13 463e
00000270: a2e2 9b3f 8daf 133f 34b5 813f b7ab 9f3f
00000280: ec6f 35bf da66 70bf 5a6c b0be a293 bf3e
00000290: 7052 2abf 6b4a 59be 1318 ffbe 16cd 68bf
000002a0: 2107 acbe 4dcc a3be 3e0e 863f 3a58 0f3e
000002b0: c046 c33e 8761 033f c77d 903f 3d4d 863e
000002c0: 1ee2 923f d82b 013f 53c8 813f d07b 9b3f
000002d0: 98c9 7b3f 10ae 033e a335 e93e a0f1 e43e
000002e0: 7810 733f fd34 783e b66a 923f 7365 233f
000002f0: 14d4 793f 3cfc 9d3f eeb9 013e 81b6 a5bf
00000300: 3823 08c0 d5a5 e3bc 2b3c a83e 1168 e53e
00000310: d1b2 983e d9e1 d8bf f14e 97bd 565e b23d
00000320: b836 63be 9482 973d 3339 fcbd 93ea 91be
00000330: 2970 6ebe 745c 44bd 3ef1 2c3e 63b1 a1be
00000340: 094d 4c3e 6870 3e3d d93e 973f 1a83 dcbe
00000350: 3e81 133f f188 193f 9132 8d3f 9425 8f3e
00000360: 38af a43f 7b80 e73e a210 8d3f c861 ab3f
00000370: b8b3 f3be cc9b 1fbe a271 7fbe 2ba0 d5bc
00000380: 2028 babe 18fa 95be 2a6e 9cbe ef26 17bf
00000390: e1f2 a53e a7e7 04be 59f8 933f 554b 233e
000003a0: a8ca d93e d106 0d3f 05ee 8b3f d559 7d3e
000003b0: abed 993f 805d 113f 0b37 823f bd5e 9a3f
000003c0: abc1 873f c4e9 613e 4a8d 003f bd50 473e
000003d0: 52a9 853f ab40 17bd 5d8a a03f 7eb7 0b3f
000003e0: 4f7d 753f e3a0 943f 8eff 4ebf 2f25 23c0
000003f0: 0785 c93d af43 5c3f d67e eebd 2a81 2b3f
1.0607609 0.1688112 0.47615686 0.5180998 1.0621861 0.18323056 1.1266204 0.6616771
1.0815681 1.1529067 1.0982896 -0.3409672 0.4884369 0.4184821 1.0312136 0.19918321
1.1062369 0.5950115 1.0561122 1.2298716 1.0695914 0.3101782 0.50760496 0.43841797
1.1157887 -0.06250668 1.2738444 0.66224074 1.0758075 1.2346072 0.9539432 0.2060564
0.5572369 0.39403337 1.108394 0.2009617 1.1803627 0.69863814 1.0237404 1.3089548
0.98661464 0.22234222 0.40005788 0.47583145 1.0576375 0.20192914 1.1475865 0.54125476
1.1309056 1.1777059 1.0704621 0.19382362 0.41442704 0.42866787 0.93943673 0.26526636
1.138357 0.6268808 0.9443733 1.1852791 1.0694948 0.25437796 0.43880194 0.16620278
1.2494602 0.22284816 1.1834989 0.7563618 0.9995093 1.1646513 1.0807248 -0.24272443
0.49743277 0.43033743 1.0851582 0.1564796 1.1393789 0.70903796 1.1335608 1.2732304
1.1072036 0.14777647 0.45597443 0.53581136 1.0240954 0.185058 1.213417 0.64938277
1.0399742 1.260212 -0.4625759 -0.3979 -0.28299904 0.09044385 -0.32942337 -0.20168309
-0.3542347 -0.831115 -0.021010963 -0.25016025 1.1434011 0.18025194 0.43925762 -0.048181202
0.9158217 0.23011011 1.2683649 0.8150829 1.1887819 1.2749052 1.08149 0.18218648
0.48667604 0.48243707 1.0253737 0.28684005 1.132454 0.5319059 0.9687922 1.1283303
1.0266496 0.14911973 0.50030285 0.33451694 1.0586658 0.22844414 1.0749182 0.57850194
1.0903088 1.2666663 -0.42196476 -1.2237735 -0.004356923 0.353878 -0.4398794 -0.15411931
-0.30449396 -0.4735585 -0.24318852 -0.54152 1.0734196 0.28803504 0.49604127 0.47498748
1.0547423 -0.059955854 1.2111213 0.7622734 1.0496092 1.2543632 1.111545 0.21534033
0.37100467 0.19178784 1.0285629 0.19343515 1.2178538 0.57689744 1.0133424 1.2474278
-0.70873904 -0.9390694 -0.34457666 0.37417322 -0.6653204 -0.21219794 -0.49823055 -0.90937936
-0.3359919 -0.31991807 1.0473096 0.139985 0.38139915 0.5132069 1.1288384 0.26230803
1.1475255 0.50457525 1.0139259 1.214716 0.9835448 0.12859368 0.45548734 0.44715595
0.94947004 0.24238963 1.1438816 0.63826674 0.9758923 1.2342601 0.12668583 -1.2946321
-2.1271496 -0.027789036 0.32858405 0.4480596 0.29823926 -1.6943923 -0.07388104 0.087093994
-0.22188842 0.07397953 -0.123155974 -0.28499278 -0.23284973 -0.047939733 0.16888902 -0.31580648
0.19951262 0.046493918 1.1816055 -0.43068773 0.5761908 0.5997458 1.1031057 0.27958357
1.2865973 0.4521521 1.1020701 1.3389215 -0.47598052 -0.15586776 -0.24945691 -0.02607735
-0.36358738 -0.2929237 -0.30552799 -0.5904378 0.32411864 -0.12978993 1.1560165 0.15946706
0.42537427 0.55088526 1.0932013 0.247413 1.2025656 0.56783295 1.0173048 1.2060162
1.0605978 0.22061831 0.5021559 0.19464393 1.0442297 -0.036926907 1.2542225 0.5457686
0.9589433 1.1611599 -0.80858696 -2.5491445 0.09839826 0.86040777 -0.11645286 0.66993964

sequential_1/dense_7/MatMul f4 [10, 50]
00000000: 833d bf3e 24e8 9a3e e404 9b3e d48f 913e
00000010: b9e0 8f3e c7b5 9d3e 696b 3b3e 2052 a33e
00000020: c199 a83e 6d86 82bf baa6 593e 1e4a 963e
00000030: 359d 853e 0365 3bbf 1edc b63e b383 353e
00000040: 2c9b 9dbf 8773 a43e 1e1c 943e 6eca 3bbf
00000050: c538 ba3c 331f 973e 9b95 f3be 9337 b63e
00000060: b58c f33d e091 c6bd 0e10 8d3e 49a3 873e
00000070: 812d 8c3e 6c82 ef3e 3098 ca3e b6c9 693e
00000080: b93a 303e a21c d63e 01db 963e de2c 6dbf
00000090: cc4e a83e 6b78 8c3e f6d3 293e 1176 90bf
000000a0: f922 c73e 5ae5 9f3e 576a bebf d48f b63e
000000b0: 6f88 773e 9cf3 b93e 8c9c a93e 6601 c13f
000000c0: 8f61 803e fb36 993e 41e6 e4be 9933 31bf
000000d0: cbf7 0abf 31eb ccbe a6a4 f2be 28ff 09bf
000000e0: 23e2 6abe 2d14 1fbf 3ee6 e9be bf89 c53f
000000f0: 0dcf 9dbe 3faf 2fbf 604c d9be 0bea 733f
00000100: 3d8a 0abf 6a8f c1be 6fc5 933f dff4 33bf
00000110: cbae 04bf 946f a6bf b96d 853f 3ca0 84bf
00000120: db6e 0340 ba26 1abf dd0d 57be aebd eabf
00000130: 3bb8 03bf eaba 33bf 25ed 62bf 66aa 483e
00000140: 745e 35bf 3bbe 43bf 3e96 ebbd 9074 923e
00000150: 7b5d 97bd 19eb 703f 48be 81bf c3b9 d6be
00000160: 35f5 c6be 3b8b 0240 3f79 983e 4474 a0be
00000170: a4d6 f13f 1f0b 783d f9c3 f5be ca6c 0abd
00000180: a64e 0abf b689 eb3c 6f6f ddbe 6acd 02bf
00000190: 1654 62bc ebb8 8dbc 22d7 1e3c 64cb bcbc
000001a0: fb5b 5cbd f17b 69bb 24ca 5fbd 1d14 fdbd
000001b0: 7861 a6bb 12ad 983d 4319 8abd df97 28bd
000001c0: 409f 20bc efb4 2ebd e58e 01be 3951 51bd
000001d0: 7a02 6abd bca0 4fbd 5be0 72bc 0d79 afbd
000001e0: 6dcd 033d c923 42bd 79ed f5bd a477 7abd
000001f0: 9329 1dbb 9da4 75bc 7c4c 8b3c 6799 75bc
00000200: 11fb 38bd 223e f2ba 92ee 75bd b9ed 163d
00000210: 1dc2 be3c 1d47 c13d faff 59bd e31f fb3c
00000220: 6dfa 9cbd 7b2f e23c 2f07 dabd ad0b 33bc
00000230: c876 91bd eb47 933c addd 2ebd 6e70 babc
00000240: 8828 dabd 441d 073d b996 44bd ed64 ddbc
00000250: 151f e83c 6e77 b9bd 149b 233e 11d3 183e
00000260: 3c71 3a3e fb65 313e e68d 393e 0e59 c33d
00000270: 21e5 853e c370 123e eaae 293d bfff aa3f
00000280: 302c 243e 866e db3d 3649 413e f29c 7e3f
00000290: a821 56bc 714e 8b3e 6146 bf3f adbe 3f3d
000002a0: 708e a43d 2db5 193f f9cd bf3e 7ef3 a3bd
000002b0: fe64 8e3f ee7e 7dbc 1195 4b3e ba41 2a3d
000002c0: f8b9 3b3e bfb4 d03d 08d2 723d 3b4c b83d
000002d0: c512 363d df02 843d d899 8a3e eb10 60bc
000002e0: 5d4a 963d 541f 8a3f f53e da3d af32 2a3e
000002f0: 0ffd 593e 7c44 0f40 7aa0 b13d 1602 043e
00000300: e941 0f40 d4a2 233e 0c34 943e 5a5e 1e3e
00000310: 0f4a 503e e4c8 8fbf 00a8 763e 45f3 0d3e
00000320: 6f91 efbe 2b65 11bf 2445 00bf ddba c0be
00000330: e78e ddbe 2960 20bf face 8ebe f8c7 08bf
00000340: 1890 c2be 00d9 cf3f e318 94be 29b8 25bf
00000350: 4e94 e4be 998b 913f 9439 07bf 16ba afbe
00000360: fa3e 9e3f c491 2ebf 9a7b 05bf ceea 98bf
00000370: d1ad 903f 9b78 5fbf b458 0540 0bb2 23bf
00000380: 6ded 2cbe 7b02 d2bf fbbc 0bbf 0260 2fbf
00000390: 1d11 50bf 155d 3d3e 920c 27bf 9116 1ebf
000003a0: 4477 1ebe c7f5 823e df8f 6d3d 268b 883f
000003b0: 0447 5dbf 6a89 c2be cb48 eabe c7e0 0240
000003c0: 93b2 663e 3862 81be 9c29 f13f d0e6 c33c
000003d0: f7ef dfbe 928c e8bd b0e1 06bf 0f0e 3a3d
000003e0: c564 c0be 1781 15bf f065 ad3e 1af0 7b3e
000003f0: 88c1 b33e 3d57 953e 0091 953e 2d0e 963e
0.37351617 0.30255234 0.3027717 0.28430045 0.28101137 0.30802748 0.18302692 0.31898594
0.32929805 -1.0197273 0.21255007 0.29353422 0.26096502 -0.73201007 0.3571481 0.1772602
-1.231298 0.3211939 0.28927702 -0.7335576 0.022732148 0.2951599 -0.47575077 0.35589275
0.11892072 -0.09695792 0.2755131 0.26491764 0.27378467 0.46779191 0.39569235 0.22830853
0.17209901 0.4181872 0.29463962 -0.92646587 0.32872617 0.27435622 0.16584763 -1.1286031
0.3889387 0.3122967 -1.4876202 0.35656607 0.24173139 0.36318672 0.33127248 1.5078552
0.2507443 0.2992476 -0.4470692 -0.69219357 -0.5428435 -0.40023187 -0.47391242 -0.5390496
-0.22937827 -0.6214016 -0.45683473 1.5432662 -0.3082203 -0.6862678 -0.42441082 0.95278996
-0.54117185 -0.3780473 1.1544627 -0.7029552 -0.5182921 -1.3002801 1.042411 -1.03614
2.053641 -0.6021534 -0.21001382 -1.8339136 -0.5145299 -0.70207083 -0.88643104 0.19596252
-0.7084725 -0.76462144 -0.11503266 0.28604555 -0.07390877 0.9410873 -1.0136194 -0.419386
-0.38858953 2.039748 0.29780003 -0.31338704 1.8893628 0.06055748 -0.48001078 -0.033795156
-0.5402626 0.02875219 -0.4324908 -0.51094687 -0.013813993 -0.01730009 0.009694846 -0.023046203
-0.053798657 -0.0035626853 -0.054636136 -0.12357352 -0.005077537 0.074548855 -0.067430995 -0.04116046
-0.009803593 -0.04265302 -0.12652166 -0.05110285 -0.057131268 -0.050690398 -0.014823998 -0.085680105
0.03217833 -0.04739741 -0.12008185 -0.061149254 -0.002398108 -0.01499286 0.017004244 -0.014990187
-0.04516131 -0.0018481652 -0.06004197 0.036847804 0.02328592 0.09437392 -0.053222634 0.030654853
-0.076649524 0.027610531 -0.106459014 -0.010928077 -0.07102734 0.01797863 -0.042691875 -0.022758689
-0.10652262 0.032986894 -0.047995303 -0.027025664 0.028335134 -0.090559825 0.15977126 0.14924265
0.18207258 0.17324059 0.18120536 0.0953847 0.26151374 0.14300828 0.041426577 1.3359298
0.16032481 0.1071444 0.18875584 0.9945823 -0.013069548 0.27208284 1.4943353 0.046812702
0.0803498 0.6004208 0.37461832 -0.08005427 1.112457 -0.015472157 0.19881083 0.041566588
0.1833266 0.101907246 0.059282333 0.08998915 0.044451494 0.0644586 0.27070498 -0.013675909
0.073384024 1.079081 0.10656539 0.16620897 0.2128794 2.238555 0.086731866 0.1289142
2.2383978 0.15980083 0.2894596 0.1546568 0.20340751 -1.1233182 0.24087524 0.13862331
-0.46790645 -0.56794995 -0.501055 -0.37642565 -0.43273088 -0.6264673 -0.27892286 -0.5343013
-0.3800056 1.6238098 -0.28925237 -0.6473413 -0.44644397 1.1370727 -0.5282223 -0.3432166
1.2362969 -0.6819117 -0.52141726 -1.1946657 1.1303045 -0.87293404 2.083539 -0.63943547
-0.16887446 -1.6407007 -0.54585236 -0.6850587 -0.8127611 0.18492539 -0.65253556 -0.61753184
-0.15475184 0.25578138 0.057998534 1.0667465 -0.86436486 -0.37995464 -0.45758662 2.0449693
0.22529058 -0.25270247 1.8840823 0.02391377 -0.43737766 -0.11354937 -0.5268812 0.045423564
-0.3757688 -0.584001 0.33866835 0.2460331 0.3510859 0.2916812 0.2921219 0.2930769

sequential_1/dense_8/MatMul f4 [1, 10]
00000000: 6ee8 fdbe 6c20 3140 b312 f4bc ffe3 903f
00000010: 2bce 3040 5539 f4be 9b39 f2be 3c37 6dbf
00000020: 0f5c 9940 045b 06bf
-0.49591392 2.7676039 -0.029794073 1.1319579 2.7625835 -0.4769999 -0.47309574 -0.92662406
4.7924876 -0.5248263

sequential_1/dense_9/MatMul f4 [23, 1]
00000000: defa 303f 6fd6 90bd 0581 60bd 603a 433f
00000010: a14b 5f3d fc17 fa3e f088 7ebd 7e98 cbbd
00000020: a60b 86bd 5f17 c2be bfc6 2f3e 7e32 a9be
00000030: f9c1 863e 518c 933e d64c 553f 8d9b 863c
00000040: b86a debd e2ba 6d3e 9b21 5a3f fb82 a8bc
00000050: 06f3 6c3f 2b39 b5bd 8d80 c3bd
0.6913279 -0.0707215 -0.054810543 0.7626095 0.054515485 0.48846424 -0.062142313 -0.09941195
-0.065451905 -0.37908456 0.1716566 -0.33046335 0.26319864 0.2881799 0.8332037 0.016431594
-0.10860199 0.23215821 0.8520753 -0.020570269 0.92558324 -0.088487945 -0.095460035
